{"format": "torch", "nodes": [{"name": "embedding", "id": 139625757072208, "class_name": "Embedding(616, 128)", "parameters": [["weight", [616, 128]]], "output_shape": [[2900, 128]], "num_parameters": [78848]}, {"name": "MLP_V", "id": 139625805601232, "class_name": "BuildingBlock(\n  (lin1): Linear(in_features=128, out_features=256, bias=False)\n  (hidden): Linear(in_features=256, out_features=128, bias=True)\n  (lin2): Linear(in_features=128, out_features=128, bias=True)\n)", "parameters": [["lin1.weight", [256, 128]], ["hidden.weight", [128, 256]], ["hidden.bias", [128]], ["lin2.weight", [128, 128]], ["lin2.bias", [128]]], "output_shape": [[2900, 128]], "num_parameters": [32768, 32768, 128, 16384, 128]}, {"name": "MLP_E", "id": 139625756739280, "class_name": "BuildingBlock(\n  (lin1): Linear(in_features=1, out_features=256, bias=False)\n  (hidden): Linear(in_features=256, out_features=128, bias=True)\n  (lin2): Linear(in_features=128, out_features=128, bias=True)\n)", "parameters": [["lin1.weight", [256, 1]], ["hidden.weight", [128, 256]], ["hidden.bias", [128]], ["lin2.weight", [128, 128]], ["lin2.bias", [128]]], "output_shape": [[2884, 128]], "num_parameters": [256, 32768, 128, 16384, 128]}, {"name": "message_passing_steps.0", "id": 139625756740496, "class_name": "PaliwalMP(\n  (MLP_edge): BuildingBlock(\n    (lin1): Linear(in_features=384, out_features=256, bias=False)\n    (hidden): Linear(in_features=256, out_features=128, bias=True)\n    (lin2): Linear(in_features=128, out_features=128, bias=True)\n  )\n  (MLP_edge_hat): BuildingBlock(\n    (lin1): Linear(in_features=384, out_features=256, bias=False)\n    (hidden): Linear(in_features=256, out_features=128, bias=True)\n    (lin2): Linear(in_features=128, out_features=128, bias=True)\n  )\n  (MLP_aggr): BuildingBlock(\n    (lin1): Linear(in_features=384, out_features=256, bias=False)\n    (hidden): Linear(in_features=256, out_features=128, bias=True)\n    (lin2): Linear(in_features=128, out_features=128, bias=True)\n  )\n)", "parameters": [["MLP_edge.lin1.weight", [256, 384]], ["MLP_edge.hidden.weight", [128, 256]], ["MLP_edge.hidden.bias", [128]], ["MLP_edge.lin2.weight", [128, 128]], ["MLP_edge.lin2.bias", [128]], ["MLP_edge_hat.lin1.weight", [256, 384]], ["MLP_edge_hat.hidden.weight", [128, 256]], ["MLP_edge_hat.hidden.bias", [128]], ["MLP_edge_hat.lin2.weight", [128, 128]], ["MLP_edge_hat.lin2.bias", [128]], ["MLP_aggr.lin1.weight", [256, 384]], ["MLP_aggr.hidden.weight", [128, 256]], ["MLP_aggr.hidden.bias", [128]], ["MLP_aggr.lin2.weight", [128, 128]], ["MLP_aggr.lin2.bias", [128]]], "output_shape": [[2900, 128]], "num_parameters": [98304, 32768, 128, 16384, 128, 98304, 32768, 128, 16384, 128, 98304, 32768, 128, 16384, 128]}, {"name": "message_passing_steps.1", "id": 139625756426640, "class_name": "PaliwalMP(\n  (MLP_edge): BuildingBlock(\n    (lin1): Linear(in_features=384, out_features=256, bias=False)\n    (hidden): Linear(in_features=256, out_features=128, bias=True)\n    (lin2): Linear(in_features=128, out_features=128, bias=True)\n  )\n  (MLP_edge_hat): BuildingBlock(\n    (lin1): Linear(in_features=384, out_features=256, bias=False)\n    (hidden): Linear(in_features=256, out_features=128, bias=True)\n    (lin2): Linear(in_features=128, out_features=128, bias=True)\n  )\n  (MLP_aggr): BuildingBlock(\n    (lin1): Linear(in_features=384, out_features=256, bias=False)\n    (hidden): Linear(in_features=256, out_features=128, bias=True)\n    (lin2): Linear(in_features=128, out_features=128, bias=True)\n  )\n)", "parameters": [["MLP_edge.lin1.weight", [256, 384]], ["MLP_edge.hidden.weight", [128, 256]], ["MLP_edge.hidden.bias", [128]], ["MLP_edge.lin2.weight", [128, 128]], ["MLP_edge.lin2.bias", [128]], ["MLP_edge_hat.lin1.weight", [256, 384]], ["MLP_edge_hat.hidden.weight", [128, 256]], ["MLP_edge_hat.hidden.bias", [128]], ["MLP_edge_hat.lin2.weight
…
